checkPoints/model_0.pth (torch_old, 113561 bytes, 8 tensors)

conv1.weight f4 [6, 3, 5, 5]
0.12814823 0.18103603 0.043394063 0.03938156 0.12127601 0.09914957 0.18255734 0.021400837
0.10689557 0.13084157 0.002119329 0.08287439 0.1385148 0.02318154 0.083869055 -0.039812036
-0.02003111 0.03275364 0.048709266 0.089517124 0.07862026 0.08390104 0.13503844 -0.028854793
0.116222225 -0.19560112 -0.13941054 -0.16084886 -0.21303336 -0.076335974 -0.18840787 -0.15287367
-0.16208161 -0.110940754 -0.15758322 -0.048803408 -0.028042303 -0.17944694 -0.10772216 -0.09438826
-0.17227688 -0.22521895 -0.20438097 -0.18888001 -0.075695895 -0.063341804 -0.08273635 -0.19678703
-0.062107038 -0.2281187 0.0028755853 0.13556333 0.12933186 -0.015713992 -0.0487059 0.13216765
-0.021268705 -0.020203592 0.15022793 0.107975885 -0.031041209 -0.055798907 0.06253092 0.1083217
0.094120264 -0.012291731 -0.033845514 0.14390486 0.06243544 0.042738326 0.0003642997 0.0994387
0.044477638 0.14603792 -0.030371511 0.00519567 -0.027110556 -0.13854802 -0.13281824 -0.170604
-0.007851511 -0.114245124 -0.04706009 -0.046093456 -0.04323762 0.07251848 -0.031524148 -0.06174026
-0.12134915 0.026752383 -0.085562475 -0.014340802 0.018259767 0.07432332 -0.058216266 -0.11345015
-0.10283658 -0.121784754 -0.053610932 -0.09347829 0.062413845 0.08921267 0.1066562 0.10589111
0.15557423 0.22275898 0.17560522 0.21893519 0.052544426 0.21204548 0.22037151 0.24487805
0.17159185 0.10054583 0.1859559 0.096732534 0.15910815 0.23178636 0.25413334 0.21121475
0.06810512 0.16642901 0.18716255 0.23567235 0.21913165 -0.1889794 -0.19170664 -0.24869315
-0.075806 -0.17178129 -0.2155142 -0.075565465 -0.08196448 -0.10716656 -0.19722457 -0.17367472
0.007972598 -0.06561487 -0.13913839 -0.20353113 -0.19036745 -0.06422636 -0.080967054 0.0028455432
-0.035740435 -0.14731514 -0.20966645 -0.18094711 -0.124582805 -0.16584246 0.214595 0.10034609
0.11900028 0.0516737 0.13066709 0.203027 0.13361287 0.16886522 0.1296714 0.12771149
0.21268867 0.2259815 0.12335919 0.05259858 0.13666137 0.14706556 0.23308767 0.22846417
0.23975663 0.06635312 0.23517306 0.24680477 0.2608419 0.14212684 0.20931284 -0.08317088
-0.029702643 -0.16782488 -0.06885117 -0.16494483 -0.04586996 0.05427283 -0.060869705 -0.097296104
-0.1774115 0.003118241 -0.08583522 -0.0003395681 -0.083795376 -0.105420336 -0.13942546 0.01574921
-0.17762055 -0.05690735 -0.142031 0.0026861597 0.044954013 0.02007062 -0.10857217 -0.11107654
-0.08590077 0.040707055 0.07488715 0.019907849 -0.15761054 0.075609155 0.0939313 -0.050681584
0.036542848 0.016522314 -0.05876023 0.03348919 -0.0055723675 0.014935217 -0.10997712 0.04178042
0.019160943 -0.021545434 -0.07902167 -0.029156486 -0.045207307 0.0074513587 0.13594492 0.038324177
-0.105697654 0.16397814 0.29053566 0.23178208 0.2957712 0.194834 0.16901773 0.14964764
0.18456727 0.2119358 0.285218 0.19100358 0.20858103 0.1646025 0.31232014 0.25166142
0.21459402 0.10506082 0.18004322 0.21761352 0.14024554 0.20124859 0.082075976 0.078489326
0.27735564 0.22022127 0.0766979 0.005080897 -0.04944014 0.10374628 0.1208689 -0.17758687
00000000: 4a39 033e 8261 393e f9bd 313d 8f4e 213d
00000010: 8f5f f83d ee0e cb3d 50f0 3a3e cf50 af3c
00000020: 11ec da3d 55fb 053e 71e4 0a3b 0cba a93d
00000030: d3d6 0d3e 37e7 bd3c 8ac3 ab3d f211 23bd
00000040: 4818 a4bc ae28 063d 5e83 473d c154 b73d
00000050: a903 a13d 4fd4 ab3d 8447 0a3e e360 ecbc
00000060: eb05 ee3d a94b 48be a3c1 0ebe 90b5 24be
00000070: 6b25 5abe 0956 9cbd feed 40be ea8a 1cbe
00000080: b9f8 25be e834 e3bd 7f5d 21be 15e6 47bd
00000090: f9b8 e5bc f0c0 37be 709d dcbd a24e c1bd
000000a0: 5a69 30be cc9f 66be 3f49 51be c369 41be
000000b0: 7306 9bbd 59b9 81bd ad71 a9bd 8a82 49be
000000c0: f363 7ebd f397 69be 5174 3c3b 1dd1 0a3e
000000d0: 926f 043e a1ba 80bc d67f 47bd f556 073e
000000e0: b53b aebc 0182 a5bc 5ad5 193e 7622 dd3d
000000f0: 224a febc 658d 64bd 3610 803d c4d7 dd3d
00000100: 20c2 c03d 4263 49bc 98a1 0abd cc5b 133e
00000110: 4ebc 7f3d 620e 2f3d 7aff be39 84a6 cb3d
00000120: 2f2e 363d f78a 153e adcd f8bc 7040 aa3b
00000130: f516 debc 88df 0dbe 8101 08be d1b2 2ebe
00000140: a0a3 00bc 59f9 e9bd 15c2 40bd 7ecc 3cbd
00000150: ee19 31bd 9284 943d 771f 01bd 5be3 7cbd
00000160: e785 f8bd d027 db3c 613b afbd aff5 6abc
00000170: 8295 953c d336 983d 2e74 6ebd 8d58 e8bd
00000180: fc9b d2bd 496a f9bd 2397 5bbd 8c71 bfbd
00000190: a9a5 7f3d 22b5 b63d 916e da3d 70dd d83d
000001a0: da4e 1f3e ee1a 643e dbd1 333e 8c30 603e
000001b0: d338 573d 7322 593e 12a9 613e 50c1 7a3e
000001c0: c6b5 2f3e f9ea cd3d 396b 3e3e b51b c63d
000001d0: 3fed 223e 6759 6d3e c41d 823e ae48 583e
000001e0: b27a 8b3d 5e6c 2a3e 8aa7 3f3e 1854 713e
000001f0: 0c64 603e d183 41be bf4e 44be 6ba9 7ebe
00000200: 2d40 9bbd 6fe7 2fbe c1af 5cbe 11c2 9abd
00000210: fedc a7bd 247a dbbd 3df5 49be c9d7 31be
00000220: 809f 023c 1761 86bd 4b7a 0ebe 776a 50be
00000230: afef 42be 1c89 83bd 0ed2 a5bd 4b7c 3a3b
00000240: 9064 12bd c8d9 16be cdb2 56be 334a 39be
00000250: 4525 ffbd 9bd2 29be cbbe 5b3e 4082 cd3d
00000260: 6bb6 f33d cda7 533d 98cd 053e 4fe6 4f3e
00000270: d0d1 083e 01eb 2c3e 94c8 043e cdc6 023e
00000280: 0fcb 593e b267 673e bea3 fc3d 9c71 573d
00000290: f5f0 0b3e 5b98 163e 89ae 6e3e 83f2 693e
000002a0: c382 753e 25e4 873d 35d1 703e 64ba 7c3e
000002b0: 128d 853e b389 113e 1b56 563e 7f55 aabd
000002c0: f552 f3bc 49da 2bbe d801 8dbd 4ce7 28be
000002d0: 24e2 3bbd 304d 5e3d 8352 79bd 2e43 c7bd
000002e0: 5cab 35be 675b 4c3b 60ca afbd 0f08 b2b9
000002f0: e99c abbd 9ee6 d7bd 8cc5 0ebe 7d04 813c
00000300: 29e2 35be ae17 69bd 9370 11be 480a 303b
00000310: b321 383d 246b a43c 165b debd 197c e3bd
00000320: beec afbd 71bc 263d 6f5e 993d c915 a33c
00000330: a864 21be f9d8 9a3d 0e5f c03d 7e97 4fbd
00000340: f4ad 153d ce59 873c 91ae 70bd f62b 093d
00000350: 6898 b6bb d7b2 743c af3b e1bd f221 2b3d
00000360: 69f7 9c3c 0d80 b0bc 1dd6 a1bd 95d9 eebc
00000370: 4c2b 39bd 872a f43b 2535 0b3e d0f9 1c3d
00000380: 0378 d8bd e3e9 273e 17c1 943e 4858 6d3e
00000390: 536f 973e 9082 473e fc12 2d3e 3b3d 193e
000003a0: 34ff 3c3e b305 593e 1808 923e 7196 433e
000003b0: 4496 553e 8f8d 283e 6de8 9f3e c4d9 803e
000003c0: 89be 5b3e 212a d73d 405d 383e 14d6 5e3e
000003d0: 879c 0f3e 1c14 4e3e 7317 a83d 03bf a03d
000003e0: 8f01 8e3e af81 613e ca13 9d3d a77d a63b
000003f0: bf81 4abd ee78 d43d 1d8a f73d 55d9 35be

conv1.bias f4 [6]
0.09372669 0.72505367 -0.35188442 -0.121861994 -0.10027002 0.1634983
00000000: c7f3 bf3d 1e9d 393f 322a b4be c892 f9bd
00000010: 5e5a cdbd 196c 273e

conv2.weight f4 [16, 6, 5, 5]
-0.0072763693 -0.016646452 -0.07341024 0.020338 0.0375422 -0.027311848 -0.08344472 0.062567234
0.039550148 -0.014793367 -0.07717949 -0.08389962 -0.08131626 -0.033959504 -0.07183367 -0.08287
0.01860352 -0.042397935 -0.0012859276 0.002450272 0.05619148 -0.0506259 0.058071338 -0.064439446
0.034000676 -0.032185256 -0.026611183 0.041502822 0.032776996 -0.0045503834 0.0694799 0.082674935
0.0045641595 0.034744624 -0.043306123 -0.052296355 0.015497775 -0.07282677 -0.06746924 -0.0470404
0.07977227 -0.008515828 0.026722841 -0.055651475 0.025691178 0.039880253 0.035442494 -0.045983803
-0.070172735 -0.05101776 0.056996815 -0.018977134 -0.0036952666 0.0686 -0.058824338 0.06570105
-0.029298348 0.0697786 -0.023900658 -0.038173158 -0.03030032 0.042599384 -0.0028412319 0.020306552
-0.0236909 0.03438355 0.06960584 0.04044734 0.02138982 -0.072279125 0.02500622 -0.056391645
0.032077886 -0.035327967 0.029050253 -0.012395589 -0.016403465 0.075879805 -0.062446617 0.05783969
0.008308968 0.026863769 -0.011207028 -0.007232668 0.008810412 0.0345203 0.02937357 -0.06287705
0.028227888 -0.027202921 0.035459343 0.024520528 0.031903762 -0.015547757 -0.068258375 0.051517583
-0.07866926 0.03502239 -0.08176329 -0.07944415 0.041766062 -0.06092596 0.029565597 -0.06883392
0.0011825201 -0.056795113 -0.026934285 0.07874486 0.033056024 -0.015018557 0.048712354 0.07517391
0.060121454 0.02086679 -0.068099566 -0.0022803966 0.034306202 -0.0012638902 -0.061581753 -0.055424303
0.07773 -0.06846651 0.05983793 -0.04641374 -0.058644738 -0.032283034 0.037808076 -0.08221956
0.020722775 -0.046392184 -0.036233522 0.0115258815 -0.05334214 -0.005016602 -0.057940673 -0.07102138
0.012112965 -0.0766404 0.032653447 0.044274427 0.0285166 0.008845344 -0.044457708 0.053753193
-0.04645995 -0.061364476 -0.082324356 0.014932244 -0.015214084 -0.032702964 0.046217304 -0.08739795
0.06483257 -0.080789074 -0.002530083 -0.040102318 0.00850859 -0.036984447 -0.02218689 -0.057416264
0.02075568 -0.075135246 -0.045155663 -0.05519302 0.05580564 0.038437296 -0.052892778 0.008076168
0.07534373 0.054503616 0.0012758056 0.051127158 0.03864012 -0.063703366 -0.04903505 0.024701083
-0.060516514 0.05475409 0.010558943 -0.015468101 0.047866132 -0.010070842 0.016639771 -0.050229006
0.09773603 -0.031666707 -0.05396983 0.07406056 0.092737414 0.07734448 -0.045696888 0.058052775
0.013940721 -0.00019620029 0.028204346 0.067276135 -0.015310611 0.022422718 -0.0007321554 0.0064838766
-0.0050703976 -0.012790802 -0.13045982 -0.1163973 -0.09634211 0.0020564822 0.009775967 0.016113129
-0.098217316 -0.14787057 -0.09951427 -0.088294275 -0.08071983 -0.08240042 -0.13434547 -0.036363196
-0.12337552 0.030550528 -0.035678227 -0.08822542 -0.016431624 -0.036638234 -0.11783187 -0.07577644
-0.07029691 -0.046582352 -0.071135245 -0.03253579 0.001724288 -0.03194534 -0.070889756 -0.1332533
-0.0434322 0.000654407 -0.065489545 -0.09147619 -0.084428795 0.0123924175 -0.061101634 -0.09607704
-0.14640078 -0.13610193 -0.11544282 -0.12457095 -0.010364738 -0.1578642 -0.1683397 -0.06493886
-0.14212885 -0.042105354 0.008590456 -0.031618245 0.023694461 0.015361472 0.025794446 -0.057287272
00000000: 9c6e eebb 245e 88bc 1c58 96bd e19b a63c
00000010: dac5 193d 19bd dfbc 11e5 aabd 4023 803d
00000020: 56ff 213d e15f 72bc 4810 9ebd 90d3 abbd
00000030: 2489 a6bd 1f19 0bbd 881d 93bd bfb7 a9bd
00000040: 6966 983c 75a9 2dbd 928c a8ba be94 203b
00000050: 0a29 663d 1b5d 4fbd 36dc 6d3d d4f8 83bd
00000060: 4b44 0b3d b0d4 03bd b2ff d9bc ddfe 293d
00000070: 2c41 063d 621b 95bb 7a4b 8e3d 7a51 a93d
00000080: f28e 953b 6150 0e3d c361 31bd b434 56bd
00000090: 61ea 7d3c 3426 95bd 502d 8abd 6fad 40bd
000000a0: a55f a33d f985 0bbc dce9 da3c cdf2 63bd
000000b0: 4e76 d23c 7a59 233d 262c 113d 8359 3cbd
000000c0: b9b6 8fbd 00f8 50bd 7e75 693d ef75 9bbc
000000d0: 492c 72bb 287e 8c3d caf1 70bd 468e 863d
000000e0: 1703 f0bc 15e8 8e3d 50cb c3bc 755b 1cbd
000000f0: 6038 f8bc b17c 2e3d f633 3abb ed59 a63c
00000100: 6b13 c2bc c4d5 0c3d 828d 8e3d 1cac 253d
00000110: b439 af3c 1407 94bd d8d9 cc3c edfa 66bd
00000120: 1a64 033d 0fb4 10bd ccfa ed3c de16 4bbc
00000130: 8f60 86bc df66 9b3d 06c8 7fbd 50e9 6c3d
00000140: 5622 083c 6811 dc3c af9d 37bc 0400 edbb
00000150: 8c59 103c 2865 0d3d d7a0 f03c afc5 80bd
00000160: 2c3e e73c a9d8 debc d13d 113d 46df c83c
00000170: 85ad 023d 05bc 7ebc 0ccb 8bbd 1a04 533d
00000180: 591d a1bd a373 0f3d 8373 a7bd 9db3 a2bd
00000190: e412 2b3d 808d 79bd 8d33 f23c ccf8 8cbd
000001a0: cafe 9a3a fea1 68bd 4aa5 dcbc fc44 a13d
000001b0: c165 073d 6510 76bc 9b86 473d c7f4 993d
000001c0: ea41 763d d5f0 aa3c c977 8bbd b572 15bb
000001d0: a984 0c3d 1ea9 a5ba 263d 7cbd 9804 63bd
000001e0: e830 9f3d 2b38 8cbd 9e18 753d 551c 3ebd
000001f0: 7735 70bd 373b 04bd a4dc 1a3d bb62 a8bd
00000200: cfc2 a93c bb05 3ebd 9a69 14bd 0dd7 3c3c
00000210: 4a7d 5abd 4f62 a4bb 3353 6dbd a873 91bd
00000220: 7575 463c a4f5 9cbd 9fbf 053d 1a59 353d
00000230: a59b e93c 10ec 103c 4919 36bd 4f2c 5c3d
00000240: ca4c 3ebd 5159 7bbd ac99 a8bd 5fa6 743c
00000250: 7e44 79bc 8bf3 05bd 5b4e 3d3d b2fd b2bd
00000260: f0c6 843d be74 a5bd c0cf 25bb 5442 24bd
00000270: 9d67 0b3c 017d 17bd 48c1 b5bc 512d 6bbd
00000280: d107 aa3c 82e0 99bd 25f5 38bd 1312 62bd
00000290: 7494 643d 6d70 1d3d 19a6 58bd e751 043c
000002a0: d04d 9a3d 2f3f 5f3d ef38 a73a b66a 513d
000002b0: 1a45 1e3d e976 82bd fad8 48bd ed59 ca3c
000002c0: 2ae0 77bd d345 603d 6bff 2c3c eb6d 7dbc
000002d0: 470f 443d 2c00 25bc 2150 883c eebc 4dbd
000002e0: d429 c83d f3b4 01bd 780f 5dbd 10ad 973d
000002f0: 1ded bd3d c866 9e3d a92c 3bbd bfc8 6d3d
00000300: 9f67 643c 1dbb 4db9 cd0c e73c 12c8 893d
00000310: 5bd9 7abc d9af b73c 1eee 3fba b376 d43b
00000320: 9425 a6bb 8390 51bc 4297 05be b561 eebd
00000330: 034f c5bd 0cc6 063b 612b 203c aeff 833c
00000340: 2926 c9bd 626b 17be 23ce cbbd a1d3 b4bd
00000350: 7050 a5bd 8dc1 a8bd dc91 09be 93f1 14bd
00000360: 4eac fcbd 1a45 fa3c 5523 12bd 87af b4bd
00000370: 9d9b 86bc f911 16bd d651 f1bd ae30 9bbd
00000380: d4f7 8fbd 23cd 3ebd 5baf 91bd 4044 05bd
00000390: 8101 e23a 1ed9 02bd a62e 91bd 8e73 08be
000003a0: f6e5 31bd 838c 2b3a 621f 86bd de57 bbbd
000003b0: 01e9 acbd 9109 4b3c b545 7abd 0ac4 c4bd
000003c0: 16ea 15be 4e5e 0bbe 496d ecbd 0e1f ffbd
000003d0: ddd0 29bc 27a7 21be 3e61 2cbe aafe 84bd
000003e0: 3a8a 11be aa76 2cbd fcbe 0c3c 2282 01bd
000003f0: e31a c23c afae 7b3c e04e d33c 0fa6 6abd

conv2.bias f4 [16]
-0.004581922 0.12189803 -0.092366174 -0.08208546 0.0338531 -0.17784436 0.28050476 -0.07325337
0.049827874 -0.019607035 -0.16806667 -0.2653457 0.15311101 0.13090588 0.051556148 -0.11029548
00000000: f323 96bb ada5 f93d 7a2a bdbd 6c1c a8bd
00000010: 8ca9 0a3d d51c 36be 529e 8f3e dd05 96bd
00000020: 5018 4c3d ef9e a0bc ab19 2cbe 64db 87be
00000030: 22c9 1c3e 310c 063e 8a2c 533d 99e2 e1bd

fc_net.0.weight f4 [50, 400]
-0.023512095 0.02613705 0.018023262 0.00794779 0.016218714 -0.014078218 -0.01755914 0.012954633
-0.016734796 -0.035589073 0.04970398 -0.044047523 -0.041740954 -0.036701396 -0.01866361 -0.03685871
0.04017744 0.05168644 0.029741265 0.0069948905 0.045728613 -0.011016972 -0.010106623 0.0027954949
0.0035445562 -0.095594734 -0.071948476 -0.055680554 -0.013111779 -0.02034496 0.030255105 -0.019039318
-0.0401025 -0.05481527 0.022753907 -0.015149242 0.052519694 -0.015977362 0.01156366 0.026976895
0.074889846 0.0053002643 0.042498056 -0.034319807 0.010077645 0.065504536 0.023265809 0.055101242
0.05407691 0.027776973 0.0319779 -0.0009549866 0.0015173758 -0.030517882 0.023679057 0.059100524
0.03145957 0.018264519 0.01704247 0.06274731 -0.0029240565 0.01419613 0.046242923 -0.017331326
0.058641735 0.025605807 -0.035087623 -0.012119726 0.05241403 0.024586827 0.018891374 -0.008476775
0.017035509 -0.007746164 -0.016971225 0.058970645 0.034752294 0.039245047 0.03074017 0.03424272
0.007041747 -0.0032303594 0.04574412 0.022088824 0.008718149 0.026848515 0.0042111576 0.04709526
0.022625428 0.014495434 0.01344675 0.0637412 0.0104973875 -0.022544567 0.06644752 0.04634119
-0.00015529028 0.04606139 0.01074622 -0.007952687 0.0062463824 -0.041132145 -0.0044305576 -0.014391843
0.013196325 0.03029864 -0.03659773 -0.027113728 -0.041169923 0.033361956 0.023996403 0.018840274
-0.02971724 0.025665725 0.05570365 0.049029525 0.017326757 -0.028642442 0.052628513 -0.022841115
-0.034792576 -0.013019347 -0.003081717 -0.00972254 0.04759849 -0.042423263 -0.063934274 -0.026918992
-0.037507053 -0.022581615 -0.034182087 -0.05091318 -0.02058414 -0.07960913 0.011898728 -0.013699867
0.033358537 -0.013869258 -0.058871895 0.03583729 0.024602862 -0.022660164 -0.009367332 0.015081874
0.04951121 -0.0036894653 0.035367742 0.047424648 0.022854034 0.025216265 -0.028773887 0.067698315
0.032988235 0.019061653 0.04511859 0.031964615 0.020587673 0.041523013 0.052311532 0.02663626
-0.025490291 0.010032315 0.03184086 0.053155623 -0.035262723 -0.05348136 0.020216646 0.0037718248
-0.0030449433 0.0054533286 -0.068803914 0.00920663 0.012935313 -0.06965873 -0.07023885 0.048896246
0.0073444545 -0.019231925 -0.036510177 -0.022306507 -0.006539124 0.028299665 0.044977207 0.021123122
0.028981043 0.01425337 -0.00045951674 -0.035002187 -0.02033383 -0.024897488 0.051300038 -0.002090552
-0.046190966 0.047644615 0.029206954 -0.029810544 -0.0027573328 -0.030802706 -0.011253674 -0.030262548
0.015213505 -0.028020926 0.059211314 -0.031402376 0.030552488 0.029893516 0.04878087 -0.012675014
0.054080885 -0.002047939 -0.007672274 -0.016678892 0.040979806 -0.041294407 -0.020424241 -0.012307849
0.036961984 0.018290577 0.044257287 -0.0019442571 0.010942351 0.019746225 -0.029317936 -0.03376405
0.008590773 0.016356543 -0.0064900597 0.017466098 0.04675321 -0.035346154 -0.020742672 0.012661717
-0.001436503 -0.02154487 -0.04454634 0.04274077 0.029171517 0.026859753 0.0064776 -0.026459556
-0.012778066 -0.027921854 -0.003538056 -0.031800233 -0.037371583 -0.040558163 -0.02807248 0.0425017
0.045015294 0.039360594 -0.02051919 0.029854145 0.003844335 0.022550408 0.024894038 -0.011278517
00000000: 709c c0bc 5e1d d63c 85a5 933c 7337 023c
00000010: 1cdd 843c 53a8 66bc 30d8 8fbc ab3f 543c
00000020: 6917 89bc d9c5 11bd 6796 4b3d 2d6b 34bd
00000030: 90f8 2abd 3454 16bd 6de4 98bc 29f9 16bd
00000040: 1991 243d 29b5 533d f4a3 f33c 6535 e53b
00000050: ed4d 3b3d 8880 34bc 4096 25bc 9f34 373b
00000060: c94b 683b 2cc7 c3bd b959 93bd 4b11 64bd
00000070: c9d2 56bc 79aa a6bc 8ed9 f73c 58f8 9bbc
00000080: 8542 24bd fa85 60bd 6766 ba3c 8734 78bc
00000090: e41e 573d f5e2 82bc 8175 3d3c a6fe dc3c
000000a0: d95f 993d d7ad ad3b 7112 2e3d ed92 0cbd
000000b0: b51c 253c 3e27 863d f097 be3c d7b1 613d
000000c0: c07f 5d3d 898c e33c 42fb 023d 1158 7aba
000000d0: afe2 c63a a300 fabc 95fa c13c 6413 723d
000000e0: c0db 003d 799f 953c a69c 8b3c a981 803d
000000f0: 87a1 3fbb e396 683c 3869 3d3d 6dfa 8dbc
00000100: 5132 703d 45c3 d13c 0ab8 0fbd d191 46bc
00000110: 18b0 563d 506a c93c 15c2 9a3c 2ce2 0abc
00000120: 0d8e 8b3c 89d3 fdbb 3d07 8bbc 348b 713d
00000130: 6c58 0e3d 6abf 203d cfd2 fb3c 1842 0c3d
00000140: 75be e63b 70b4 53bb 305e 3b3d 9ff3 b43c
00000150: 91d6 0e3c 6bf1 db3c c0fd 893b f6e6 403d
00000160: f658 b93c 427e 6d3c c24f 5c3c bf8a 823d
00000170: 3cfd 2b3c 62af b8bc a315 883d 42d0 3d3d
00000180: 6bd5 22b9 deaa 3c3d ea10 303c fd4b 02bc
00000190: 74ae cc3b 2e7a 28bd 362e 91bb c4cb 6bbc
000001a0: 6635 583c da34 f83c 80e7 15bd 9c1d debc
000001b0: cba1 28bd 8ca6 083d 1b94 c43c eb56 9a3c
000001c0: 9271 f3bc ed40 d23c 8329 643d 2fd3 483d
000001d0: d8f0 8d3c 8ea3 eabc ff90 573d 4a1d bbbc
000001e0: a982 0ebd 194f 55bc a2f6 49bb 4a4b 1fbc
000001f0: a2f6 423d 04c4 2dbd f9ef 82bd 3885 dcbc
00000200: ffa0 19bd 14fd b8bc 8402 0cbd 578a 50bd
00000210: 12a0 a8bc 1d0a a3bd e2f2 423c 6875 60bc
00000220: f6a2 083d e23b 63bc a823 71bd 1fca 123d
00000230: f18b c93c cfa1 b9bc 7079 19bc f719 773c
00000240: 44cc 4a3d f5ca 71bb c4dd 103d 5940 423d
00000250: 6238 bb3c 5792 ce3c 37b7 ebbc 6aa5 8a3d
00000260: ac1e 073d 2f27 9c3c 45ce 383d 54ed 023d
00000270: 7ba7 a83c 0914 2a3d 9e44 563d 4934 da3c
00000280: 04d1 d0bc 945e 243c 906b 023d b6b9 593d
00000290: a56f 10bd 450f 5bbd 619d a53c b830 773b
000002a0: ac8d 47bb d6b1 b23b 11e9 8cbd 68d7 163c
000002b0: a3ee 533c 3ca9 8ebd 63d9 8fbd 6e47 483d
000002c0: c0a9 f03b 458c 9dbc b28b 15bd 23bc b6bc
000002d0: 2646 d6bb b3d4 e73c 053a 383d 660a ad3c
000002e0: a769 ed3c f886 693c 4beb f0b9 745e 0fbd
000002f0: 2293 a6bc d1f5 cbbc fd1f 523d a401 09bb
00000300: bd32 3dbd 0027 433d 6c43 ef3c 3e35 f4bc
00000310: 5eb4 34bb f555 fcbc 5461 38bc 2ae9 f7bc
00000320: 1142 793c 248c e5bc 9087 723d c79f 00bd
00000330: 3649 fa3c 3fe3 f43c 73ce 473d ddaa 4fbc
00000340: eb83 5d3d b736 06bb b367 fbbb 2ca2 88bc
00000350: 71da 273d 5324 29bd bd50 a7bc dca6 49bc
00000360: 7365 173d 1fd6 953c 2147 353d 71d6 feba
00000370: 8c47 333c d6c2 a13c 2b2c f0bc 2c4c 0abd
00000380: 50c0 0c3c 28fe 853c 91aa d4bb 1015 8f3c
00000390: 4b80 3f3d 21c7 10bd 89ec a9bc 1773 4f3c
000003a0: 0b49 bcba de7e b0bc 3976 36bd f210 2f3d
000003b0: 1bf9 ee3c fc08 dc3c 0c42 d43b b6c1 d8bc
000003c0: 185b 51bc 5fbc e4bc bbde 67bb f640 02bd
000003d0: f212 19bd 5120 26bd 42f8 e5bc 4316 2e3d
000003e0: f561 383d 9338 213d dc17 a8bc ae90 f43c
000003f0: 3df1 7b3b a2bb b83c 95ee cb3c 87c9 38bc

fc_net.0.bias f4 [50]
-0.15361442 -0.16573784 -0.0059511014 -0.039348926 0.09019637 0.032659117 -0.035297547 0.17854252
-0.005604795 -0.008219527 -0.008405109 -0.029443247 -0.040709402 -0.07999204 0.020857584 0.038854036
0.0069112624 -0.04439942 -0.050936457 -0.032588813 -0.0150947645 0.11690908 0.035240054 -0.014589557
-0.041127663 -0.013106683 -0.0050468594 -0.102087006 0.005940258 -0.00917224 0.11710368 -0.09407067
0.036431346 0.029783374 -0.008940266 0.023985589 -0.007905838 0.17639218 -0.024896096 0.008729843
0.047772296 -0.09671781 -0.061057173 -0.0501878 -0.028491972 -0.09145384 -0.009623146 -0.0040008184
-0.019204618 -0.030416405
00000000: 194d 1dbe 2eb7 29be 7501 c3bb 572c 21bd
00000010: e0b8 b83d 91c5 053d 2994 10bd dad3 363e
00000020: 6ea8 b7bb 32ab 06bc 95b5 09bc f732 f1bc
00000030: e7be 26bd ded2 a3bd 86dd aa3c 6925 1f3d
00000040: df77 e23b 2bdc 35bd bfa2 50bd d97b 05bd
00000050: 0850 77bc 076e ef3d e057 103d 0a09 6fbc
00000060: 7b75 28bd 6abd 56bc 2060 a5bb fe12 d1bd
00000070: 7fa6 c23b 2a47 16bc 0ed4 ef3d 20a8 c0bd
00000080: 0939 153d 43fc f33c 327a 12bc 6d7d c43c
00000090: 7d87 01bc 27a0 343e e6f2 cbbc 9e07 0f3c
000000a0: e2ac 433d fd13 c6bd 1617 7abd b991 4dbd
000000b0: ff67 e9bc 274c bbbd 66aa 1dbc 4c19 83bb
000000c0: 0153 9dbc d32b f9bc

fc_net.2.weight f4 [100, 50]
0.05878826 0.22145362 -0.11776909 0.10440364 -0.2090877 -0.1034013 0.017474966 0.0976007
-0.117023066 0.12824634 -0.089371905 0.088865995 -0.068323284 0.13274634 -0.093821876 0.0075134975
-0.033341594 0.07626555 0.03152111 -0.08185305 -0.04887323 -0.19698542 0.03498807 0.11632547
-0.04086653 0.07961935 -0.052302774 0.11864816 -0.17218205 0.024865443 -0.14097899 0.099739626
-0.24760647 0.05140365 -0.028997334 -0.0037998694 -0.09709781 0.04515405 0.04136724 -0.22574857
-0.04399521 0.26004747 0.006465861 0.112690374 0.041541807 0.07150793 0.09550696 -0.027480999
-0.031338073 -0.1411084 0.30533618 0.04652068 0.09449064 -0.0016629947 -0.09380444 0.11531125
-0.07054513 0.03556403 -0.08801963 -0.1372362 -0.019501213 -0.024583194 0.08824786 0.16309568
-0.086878344 -0.120605 0.09507991 0.17933156 0.013410292 0.051018212 0.17787185 0.0311318
-0.07560621 -0.0038956082 -0.100052595 0.005268579 -0.033368006 0.18371674 0.17227848 0.12871064
-0.052023876 -0.015649717 0.04083073 0.11369092 0.026261525 -0.13240963 0.14570364 -0.09021351
-0.19213654 0.03341226 0.053426154 0.041762624 -0.008922644 -0.07978411 0.100027844 0.070368014
0.11247686 -0.008681686 -0.04480006 -0.025082178 0.09170253 0.2921152 -0.05347257 -0.047177326
-0.029391369 0.070456475 -0.15747683 -0.14731975 -0.0458813 -0.021674355 -0.051369905 0.017783673
-0.051385514 0.08564996 -0.016013421 0.18155956 0.0580062 -0.11303073 0.008684976 -0.10552257
0.112438746 -0.055983532 -0.031881757 -0.09642645 -0.070667915 0.029352708 -0.17945701 -0.0041488325
-0.023354033 0.039460644 0.16805474 -0.11400627 -0.015965102 -0.09527743 0.049927916 -0.026648223
-0.0064442116 -0.1939737 -0.035774413 -0.1498857 0.09885109 -0.019719971 -0.024740292 -0.0791407
-0.09000057 -0.046332043 0.014823692 -0.08302301 0.020699881 -0.04797546 -0.10299783 0.053117793
0.07839786 -0.10992812 0.0134199355 0.04323473 -0.09874012 0.14189602 0.036842514 -0.10120495
-0.11193458 -0.005084503 -0.04558828 -0.08593864 -0.075603284 0.021065641 0.0268731 0.010315199
0.06284998 0.03529087 -0.1457471 0.071810424 0.040325325 0.02922396 -0.07095401 0.060187694
0.11425536 -0.13644676 -0.010865932 -0.05214201 -0.09857464 -0.05148674 0.031850778 0.12800978
0.04698506 0.13861571 -0.082198545 0.17396857 0.06942679 0.01608851 -0.020459184 -0.06838691
-0.06955018 0.082132906 0.07171673 0.016860327 -0.05614289 0.06856094 0.078346446 -0.00078449125
0.0183447 0.01150058 0.045339547 0.027721697 -0.009166103 -0.12531048 -0.048792914 0.1309689
-0.0073168636 -0.09498321 0.09805392 -0.033232372 -0.10950063 -0.024930628 -0.05646466 -0.07052039
0.039067462 0.084800355 0.10237061 -0.043661077 -0.08297487 -0.09820028 0.06716814 0.06305548
0.11433025 -0.06547481 -0.040997416 -0.00664868 0.11295712 -0.011250573 0.053464055 -0.04217636
0.029009089 0.0233835 -0.006632667 0.12260127 0.059979882 0.06623416 -0.083443254 -0.07331313
0.058712248 -0.17795621 -0.07671307 -0.041338604 -0.13980795 0.014276743 0.02189783 0.1414829
0.094873704 0.06169719 -0.010892068 0.10468853 -0.12836918 -0.056849305 0.011267851 -0.088946305
00000000: f5cb 703d bdc4 623e ec30 f1bd 93d1 d53d
00000010: 161b 56be 10c4 d3bd a927 8f3c e0e2 c73d
00000020: caa9 efbd 0253 033e 9e08 b7bd 60ff b53d
00000030: 14ed 8bbd a8ee 073e af25 c0bd c933 f63b
00000040: 3291 08bd 1d31 9c3d 481c 013d 92a2 a7bd
00000050: 4c2f 48bd 8cb6 49be a74f 0f3d 0c3c ee3d
00000060: aa63 27bd 780f a33d 6f3b 56bd cefd f23d
00000070: 7e50 30be 9db2 cb3c cc5c 10be 4a44 cc3d
00000080: 8d8c 7dbe a28c 523d d18b edbc 3b07 79bb
00000090: 37db c6bd 74f3 383d b270 293d a22a 67be
000000a0: 5234 34bd f124 853e 93df d33b 36ca e63d
000000b0: be27 2a3d c072 923d 2799 c33d d51f e1bc
000000c0: 5a5c 00bd b87e 10be 0655 9c3e 788c 3e3d
000000d0: 4f84 c13d d8f8 d9ba 8b1c c0bd 4e28 ec3d
000000e0: f779 90bd 97ab 113d a343 b4bd a587 0cbe
000000f0: 02c1 9fbc b262 c9bc 4bbb b43d 8e02 273e
00000100: 46ed b1bd c1ff f6bd 41b9 c23d b1a2 373e
00000110: d7b6 5b3c 79f8 503d 0a24 363e 1e08 ff3c
00000120: 6ed7 9abd 764d 7fbb 60e8 ccbd 0ba4 ac3b
00000130: e4ac 08bd 3e20 3c3e c569 303e b9cc 033e
00000140: fd16 55bd d633 80bc 203e 273d c9d6 e83d
00000150: 6922 d73c 6496 07be 5633 153e dcc1 b8bd
00000160: 71bf 44be 4bdb 083d 62d5 5a3d 490f 2b3d
00000170: 4830 12bc da65 a3bd 66db cc3d 1b1d 903d
00000180: 455a e63d a13d 0ebc 4580 37bd 2479 cdbc
00000190: 89ce bb3d 2090 953e 0e06 5bbd 033d 41bd
000001a0: 2bc6 f0bc 7c4b 903d 9b41 21be fdda 16be
000001b0: 08ee 3bbd 6b8e b1bc 4069 52bd 11af 913c
000001c0: 9e79 52bd 3f69 af3d 942e 83bc c0ea 393e
000001d0: e997 6d3d a87c e7bd 6e4b 0e3c 381c d8bd
000001e0: 4946 e63d fd4e 65bd 7296 02bd 3b7b c5bd
000001f0: 57ba 90bd 1775 f03c 94c3 37be eef2 87bb
00000200: f550 bfbc 7ca1 213d 8b16 2c3e 1f7c e9bd
00000210: 3fc9 82bc d020 c3bd 3781 4c3d 604d dabc
00000220: f729 d3bb 0ba1 46be 3188 12bd a37b 19be
00000230: 7172 ca3d c78b a1bc 27ac cabc 8514 a2bd
00000240: 3852 b8bd abc6 3dbd 12df 723c f807 aabd
00000250: cc92 a93c ea81 44bd 87f0 d2bd 0b92 593d
00000260: 0f8f a03d ff21 e1bd 4adf 5b3c e616 313d
00000270: 4338 cabd 314d 113e 2de8 163d 8a44 cfbd
00000280: f53d e5bd e79b a6bb c7ba 3abd 9900 b0bd
00000290: e5d5 9abd da91 ac3c fa24 dc3c 1501 293c
000002a0: 7eb7 803d 298d 103d ba3e 15be 5811 933d
000002b0: 2b2c 253d 1667 ef3c 5650 91bd 5f87 763d
000002c0: b7fe e93d b3b8 0bbe 0607 32bc dc92 55bd
000002d0: 80e1 c9bd c3e3 52bd f675 023d ff14 033e
000002e0: 6873 403d 47f1 0d3e b657 a8bd d124 323e
000002f0: a22f 8e3d 0dcc 833c 059a a7bc 700e 8cbd
00000300: 5370 8ebd 4c35 a83d 39e0 923d ab1e 8a3c
00000310: 16f6 65bd ae69 8c3d 1a74 a03d 51a6 4dba
00000320: a047 963c ee6c 3c3c f6b5 393d 9d18 e33c
00000330: 6c2d 16bc 6451 00be 14db 47bd b61c 063e
00000340: 4dc2 efbb 8f86 c2bd 7ed0 c83d ab1e 08bd
00000350: de41 e0bd 513b ccbc 7d47 67bd ff6c 90bd
00000360: 3405 203d cfab ad3d afa7 d13d f5d5 32bd
00000370: bbee a9bd 3a1d c9bd 738f 893d 3b23 813d
00000380: fa25 ea3d a817 86bd e8ec 27bd 2cdd d9bb
00000390: 1056 e73d 5354 38bc 20fd 5a3d 1ec1 2cbd
000003a0: 78a4 ed3c c18e bf3c d856 d9bb 6016 fb3d
000003b0: 77ad 753d c6a5 873d 4ce4 aabd 3225 96bd
000003c0: 417c 703d 273a 36be be1b 9dbd ab52 29bd
000003d0: d129 0fbe 00e9 693c 1463 b33c e5e0 103e
000003e0: 254d c23d 31b6 7c3d a574 32bc f166 d63d
000003f0: 3673 03be d1da 68bd cb9c 383c 7b29 b6bd

fc_net.2.bias f4 [100]
-0.2063433 -0.05805492 0.07056938 0.06596355 0.19925942 0.033614546 -0.035074823 0.105136365
0.09795528 -0.13133956 0.012027539 0.0444555 -0.059404187 0.067504644 0.11994343 0.011408943
-0.05623393 -0.009140097 0.16437271 0.15775816 -0.17162699 0.263624 -0.088680334 -0.111290485
-0.12976587 0.00835514 -0.049767286 0.24328844 -0.010323181 -0.012031016 -0.051766545 0.19063161
0.09546482 0.17629428 -0.037994 -0.029302394 -0.12652038 -0.04219447 0.1726699 -0.06661385
-0.0976519 -0.07006599 0.2601258 -0.062087107 0.13344729 0.14079975 -0.015538092 0.0072650807
-0.013609779 -0.2106556 0.04382002 0.106690206 0.2002427 -0.4173005 -0.2521459 0.064185776
0.14887165 -0.07774026 -0.044365216 0.036801875 -0.2564573 -0.14869787 -0.30230606 0.26530078
0.18928498 0.17480561 0.27247047 0.025134964 0.060783815 -0.04515973 -0.21876597 -0.2596603
0.065241076 -0.12199397 0.16977279 0.22626874 -0.047585767 0.13005917 0.018303476 -0.035304043
0.21571848 0.13121514 -0.06012092 -0.30656216 0.009761471 0.03355359 -0.05271914 0.053040765
0.1952946 -0.045765422 0.040018022 -0.14492121 -0.2349008 0.05903488 -0.02371063 -0.13076124
0.12821436 0.23336236 0.013477328 -0.10380705
00000000: a84b 53be ffca 6dbd ae86 903d e617 873d
00000010: a90a 4c3e 68af 093d 9eaa 0fbd bc51 d73d
00000020: c79c c83d e17d 06be 280f 453c f816 363d
00000030: ce51 73bd e03f 8a3d e7a4 f53d 93ec 3a3c
00000040: 8d55 66bd 58c0 15bc 5251 283e 5b8b 213e
00000050: fcbe 2fbe baf9 863e 099e b5bd 44ec e3bd
00000060: 58e1 04be ffe3 083c c8d8 4bbd 9b20 793e
00000070: 8f22 29bc bd1d 45bc 2809 54bd ef34 433e
00000080: 0f83 c33d 7d86 343e 999f 1bbd 930b f0bc
00000090: 8f8e 01be 1cd4 2cbd 61d0 303e d86c 88bd
000000a0: b8fd c7bd c27e 8fbd 352f 853e 0d4f 7ebd
000000b0: 68a6 083e cf2d 103e 7b93 7ebc ea0f ee3b
000000c0: 8dfb 5ebc 1ab6 57be 9f7c 333d 6580 da3d
000000d0: 6c0c 4d3e 69a8 d5be 4419 81be d573 833d
000000e0: cf71 183e 4936 9fbd 4db8 35bd 90bd 163d
000000f0: 5f4e 83be 4144 18be dcc7 9abe 81d5 873e
00000100: ecd3 413e 3e00 333e 4081 8b3e d7e7 cd3c
00000110: 73f8 783d 69f9 38bd 3004 60be 32f2 84be
00000120: 1d9d 853d f9d7 f9bd ebd8 2d3e feb2 673e
00000130: 4be9 42bd 3b2e 053e 2cf1 953c f99a 10bd
00000140: 4ee5 5c3e 435d 063e 5b41 76bd b7f5 9cbe
00000150: 94ee 1f3c 7d6f 093d 06f0 57bd 4641 593d
00000160: 4ffb 473e 8674 3bbd f0e9 233d 3a66 14be
00000170: d689 70be 8fce 713d cc3c c2bc 46e6 05be
00000180: a04a 033e 8bf6 6e3e 03d0 5c3c ca98 d4bd
